tasks/torch/simple_ann_model.pt (torch_old, 919 bytes, 3 tensors)

fc1.weight f4 [5, 2]
000000 c7 5c dd bf 55 c8 0a 40 c6 dc 15 c0 60 b9 8e bf
       -1.7293938 2.1684773 -2.3416 -1.1150322
000010 0f 45 d5 3f 11 da 6b bf 87 86 a1 3f ed a5 b1 3f
       1.66617 -0.9212962 1.261918 1.3878762
000020 f5 4e e2 3f 58 df ee 3f
       1.7680346 1.8661909

fc1.bias f4 [5]
000000 c8 3f 1c be 13 2f 81 bc 90 cd 49 3f fb 91 c9 bd
       -0.15258706 -0.015769517 0.7882929 -0.09842297
000010 8f c5 54 be
       -0.20778488

fc2.weight f4 [1, 5]
000000 f4 e0 28 40 6b 4b 20 c0 38 f7 00 40 8e 3e d1 bf
       2.63873 -2.5046031 2.015089 -1.6347215
000010 b8 d0 1d c0
       -2.4658642
